/home/kirrog/anaconda3/envs/FQWB/bin/python /home/kirrog/projects/FQWB/load_and_cut.py
==========================================================================================
Layer (type:depth-idx)                   Output Shape              Param #
==========================================================================================
├─Sequential: 1-1                        [-1, 64, 112, 112]        --
|    └─Conv2d: 2-1                       [-1, 64, 112, 112]        9,472
|    └─BatchNorm2d: 2-2                  [-1, 64, 112, 112]        128
|    └─ReLU: 2-3                         [-1, 64, 112, 112]        --
├─MaxPool2d: 1-2                         [-1, 64, 56, 56]          --
├─Sequential: 1-3                        [-1, 64, 56, 56]          --
|    └─ResidualBlock: 2-4                [-1, 64, 56, 56]          --
|    |    └─Sequential: 3-1              [-1, 64, 56, 56]          37,056
|    |    └─Sequential: 3-2              [-1, 64, 56, 56]          37,056
|    |    └─ReLU: 3-3                    [-1, 64, 56, 56]          --
|    └─ResidualBlock: 2-5                [-1, 64, 56, 56]          --
|    |    └─Sequential: 3-4              [-1, 64, 56, 56]          37,056
|    |    └─Sequential: 3-5              [-1, 64, 56, 56]          37,056
|    |    └─ReLU: 3-6                    [-1, 64, 56, 56]          --
|    └─ResidualBlock: 2-6                [-1, 64, 56, 56]          --
|    |    └─Sequential: 3-7              [-1, 64, 56, 56]          37,056
|    |    └─Sequential: 3-8              [-1, 64, 56, 56]          37,056
|    |    └─ReLU: 3-9                    [-1, 64, 56, 56]          --
├─Sequential: 1-4                        [-1, 128, 28, 28]         --
|    └─ResidualBlock: 2-7                [-1, 128, 28, 28]         --
|    |    └─Sequential: 3-10             [-1, 128, 28, 28]         74,112
|    |    └─Sequential: 3-11             [-1, 128, 28, 28]         147,840
|    |    └─Sequential: 3-12             [-1, 128, 28, 28]         8,576
|    |    └─ReLU: 3-13                   [-1, 128, 28, 28]         --
|    └─ResidualBlock: 2-8                [-1, 128, 28, 28]         --
|    |    └─Sequential: 3-14             [-1, 128, 28, 28]         147,840
|    |    └─Sequential: 3-15             [-1, 128, 28, 28]         147,840
|    |    └─ReLU: 3-16                   [-1, 128, 28, 28]         --
|    └─ResidualBlock: 2-9                [-1, 128, 28, 28]         --
|    |    └─Sequential: 3-17             [-1, 128, 28, 28]         147,840
|    |    └─Sequential: 3-18             [-1, 128, 28, 28]         147,840
|    |    └─ReLU: 3-19                   [-1, 128, 28, 28]         --
|    └─ResidualBlock: 2-10               [-1, 128, 28, 28]         --
|    |    └─Sequential: 3-20             [-1, 128, 28, 28]         147,840
|    |    └─Sequential: 3-21             [-1, 128, 28, 28]         147,840
|    |    └─ReLU: 3-22                   [-1, 128, 28, 28]         --
├─Sequential: 1-5                        [-1, 256, 14, 14]         --
|    └─ResidualBlock: 2-11               [-1, 256, 14, 14]         --
|    |    └─Sequential: 3-23             [-1, 256, 14, 14]         295,680
|    |    └─Sequential: 3-24             [-1, 256, 14, 14]         590,592
|    |    └─Sequential: 3-25             [-1, 256, 14, 14]         33,536
|    |    └─ReLU: 3-26                   [-1, 256, 14, 14]         --
|    └─ResidualBlock: 2-12               [-1, 256, 14, 14]         --
|    |    └─Sequential: 3-27             [-1, 256, 14, 14]         590,592
|    |    └─Sequential: 3-28             [-1, 256, 14, 14]         590,592
|    |    └─ReLU: 3-29                   [-1, 256, 14, 14]         --
|    └─ResidualBlock: 2-13               [-1, 256, 14, 14]         --
|    |    └─Sequential: 3-30             [-1, 256, 14, 14]         590,592
|    |    └─Sequential: 3-31             [-1, 256, 14, 14]         590,592
|    |    └─ReLU: 3-32                   [-1, 256, 14, 14]         --
|    └─ResidualBlock: 2-14               [-1, 256, 14, 14]         --
|    |    └─Sequential: 3-33             [-1, 256, 14, 14]         590,592
|    |    └─Sequential: 3-34             [-1, 256, 14, 14]         590,592
|    |    └─ReLU: 3-35                   [-1, 256, 14, 14]         --
|    └─ResidualBlock: 2-15               [-1, 256, 14, 14]         --
|    |    └─Sequential: 3-36             [-1, 256, 14, 14]         590,592
|    |    └─Sequential: 3-37             [-1, 256, 14, 14]         590,592
|    |    └─ReLU: 3-38                   [-1, 256, 14, 14]         --
|    └─ResidualBlock: 2-16               [-1, 256, 14, 14]         --
|    |    └─Sequential: 3-39             [-1, 256, 14, 14]         590,592
|    |    └─Sequential: 3-40             [-1, 256, 14, 14]         590,592
|    |    └─ReLU: 3-41                   [-1, 256, 14, 14]         --
├─Sequential: 1-6                        [-1, 512, 7, 7]           --
|    └─ResidualBlock: 2-17               [-1, 512, 7, 7]           --
|    |    └─Sequential: 3-42             [-1, 512, 7, 7]           1,181,184
|    |    └─Sequential: 3-43             [-1, 512, 7, 7]           2,360,832
|    |    └─Sequential: 3-44             [-1, 512, 7, 7]           132,608
|    |    └─ReLU: 3-45                   [-1, 512, 7, 7]           --
|    └─ResidualBlock: 2-18               [-1, 512, 7, 7]           --
|    |    └─Sequential: 3-46             [-1, 512, 7, 7]           2,360,832
|    |    └─Sequential: 3-47             [-1, 512, 7, 7]           2,360,832
|    |    └─ReLU: 3-48                   [-1, 512, 7, 7]           --
|    └─ResidualBlock: 2-19               [-1, 512, 7, 7]           --
|    |    └─Sequential: 3-49             [-1, 512, 7, 7]           2,360,832
|    |    └─Sequential: 3-50             [-1, 512, 7, 7]           2,360,832
|    |    └─ReLU: 3-51                   [-1, 512, 7, 7]           --
├─AvgPool2d: 1-7                         [-1, 512, 1, 1]           --
├─Linear: 1-8                            [-1, 10]                  5,130
==========================================================================================
Total params: 21,298,314
Trainable params: 21,298,314
Non-trainable params: 0
Total mult-adds (G): 3.73
==========================================================================================
Input size (MB): 0.57
Forward/backward pass size (MB): 57.04
Params size (MB): 81.25
Estimated Total Size (MB): 138.86
…
All: 2.0368995666503906 c1l: 0.0211748406291008 c1b: 1.000463604927063 c2l: 0.014569081366062164 c2b: 1.0006920099258423
All: 2.0320651531219482 c1l: 0.014862649142742157 c1b: 1.0003389120101929 c2l: 0.014571703039109707 c2b: 1.0022919178009033
All: 2.0333924293518066 c1l: 0.014806849882006645 c1b: 1.0003620386123657 c2l: 0.014720318838953972 c2b: 1.0035032033920288
==========================================================================================
Layer (type:depth-idx)                   Output Shape              Param #
==========================================================================================
├─Sequential: 1-1                        [-1, 64, 112, 112]        --
|    └─Conv2d: 2-1                       [-1, 64, 112, 112]        9,472
|    └─BatchNorm2d: 2-2                  [-1, 64, 112, 112]        128
|    └─ReLU: 2-3                         [-1, 64, 112, 112]        --
├─MaxPool2d: 1-2                         [-1, 64, 56, 56]          --
├─Sequential: 1-3                        [-1, 64, 56, 56]          --
|    └─ResidualBlock: 2-4                [-1, 64, 56, 56]          --
|    |    └─Sequential: 3-1              [-1, 64, 56, 56]          37,056
|    |    └─Sequential: 3-2              [-1, 64, 56, 56]          37,056
|    |    └─ReLU: 3-3                    [-1, 64, 56, 56]          --
|    └─ResidualBlock: 2-5                [-1, 64, 56, 56]          --
|    |    └─Sequential: 3-4              [-1, 64, 56, 56]          37,056
|    |    └─Sequential: 3-5              [-1, 64, 56, 56]          37,056
|    |    └─ReLU: 3-6                    [-1, 64, 56, 56]          --
|    └─ResidualBlock: 2-6                [-1, 64, 56, 56]          --
|    |    └─Sequential: 3-7              [-1, 64, 56, 56]          37,056
|    |    └─Sequential: 3-8              [-1, 64, 56, 56]          37,056
|    |    └─ReLU: 3-9                    [-1, 64, 56, 56]          --
├─Sequential: 1-4                        [-1, 128, 28, 28]         --
|    └─ResidualBlock: 2-7                [-1, 128, 28, 28]         --
|    |    └─Sequential: 3-10             [-1, 128, 28, 28]         74,112
|    |    └─Sequential: 3-11             [-1, 128, 28, 28]         147,840
|    |    └─Sequential: 3-12             [-1, 128, 28, 28]         8,576
|    |    └─ReLU: 3-13                   [-1, 128, 28, 28]         --
|    └─ResidualBlock: 2-8                [-1, 128, 28, 28]         --
|    |    └─Sequential: 3-14             [-1, 128, 28, 28]         147,840
|    |    └─Sequential: 3-15             [-1, 128, 28, 28]         147,840
|    |    └─ReLU: 3-16                   [-1, 128, 28, 28]         --
|    └─ResidualBlock: 2-9                [-1, 128, 28, 28]         --
|    |    └─Sequential: 3-17             [-1, 128, 28, 28]         147,840
|    |    └─Sequential: 3-18             [-1, 128, 28, 28]         147,840
|    |    └─ReLU: 3-19                   [-1, 128, 28, 28]         --
|    └─ResidualBlock: 2-10               [-1, 128, 28, 28]         --
|    |    └─Sequential: 3-20             [-1, 128, 28, 28]         147,840
|    |    └─Sequential: 3-21             [-1, 128, 28, 28]         147,840
|    |    └─ReLU: 3-22                   [-1, 128, 28, 28]         --
├─Sequential: 1-5                        [-1, 256, 14, 14]         --
|    └─ResidualBlock: 2-11               [-1, 256, 14, 14]         --
|    |    └─Sequential: 3-23             [-1, 256, 14, 14]         295,680
|    |    └─Sequential: 3-24             [-1, 256, 14, 14]         590,592
|    |    └─Sequential: 3-25             [-1, 256, 14, 14]         33,536
|    |    └─ReLU: 3-26                   [-1, 256, 14, 14]         --
|    └─ResidualBlock: 2-12               [-1, 256, 14, 14]         --
|    |    └─Sequential: 3-27             [-1, 256, 14, 14]         590,592
|    |    └─Sequential: 3-28             [-1, 256, 14, 14]         590,592
|    |    └─ReLU: 3-29                   [-1, 256, 14, 14]         --
|    └─ResidualBlock: 2-13               [-1, 256, 14, 14]         --
|    |    └─Sequential: 3-30             [-1, 256, 14, 14]         590,592
|    |    └─Sequential: 3-31             [-1, 256, 14, 14]         590,592
|    |    └─ReLU: 3-32                   [-1, 256, 14, 14]         --
|    └─ResidualBlock: 2-14               [-1, 256, 14, 14]         --
|    |    └─Sequential: 3-33             [-1, 256, 14, 14]         590,592
|    |    └─Sequential: 3-34             [-1, 256, 14, 14]         590,592
|    |    └─ReLU: 3-35                   [-1, 256, 14, 14]         --
|    └─ResidualBlock: 2-15               [-1, 256, 14, 14]         --
|    |    └─Sequential: 3-36             [-1, 256, 14, 14]         590,592
|    |    └─Sequential: 3-37             [-1, 256, 14, 14]         590,592
|    |    └─ReLU: 3-38                   [-1, 256, 14, 14]         --
|    └─ResidualBlock: 2-16               [-1, 256, 14, 14]         --
|    |    └─Sequential: 3-39             [-1, 256, 14, 14]         590,592
|    |    └─Sequential: 3-40             [-1, 256, 14, 14]         590,592
|    |    └─ReLU: 3-41                   [-1, 256, 14, 14]         --
├─Sequential: 1-6                        [-1, 512, 7, 7]           --
|    └─ResidualBlock: 2-17               [-1, 512, 7, 7]           --
|    |    └─Sequential: 3-42             [-1, 512, 7, 7]           1,181,184
|    |    └─Sequential: 3-43             [-1, 512, 7, 7]           2,360,832
|    |    └─Sequential: 3-44             [-1, 512, 7, 7]           132,608
|    |    └─ReLU: 3-45                   [-1, 512, 7, 7]           --
|    └─ResidualBlock: 2-18               [-1, 512, 7, 7]           --
|    |    └─Sequential: 3-46             [-1, 512, 7, 7]           2,360,832
|    |    └─Sequential: 3-47             [-1, 512, 7, 7]           2,360,832
|    |    └─ReLU: 3-48                   [-1, 512, 7, 7]           --
├─AvgPool2d: 1-7                         [-1, 512, 1, 1]           --
├─Linear: 1-8                            [-1, 10]                  5,130
==========================================================================================
Total params: 16,576,650
Trainable params: 16,576,650
Non-trainable params: 0
Total mult-adds (G): 3.48
==========================================================================================
Input size (MB): 0.57
Forward/backward pass size (MB): 56.27
Params size (MB): 63.23
Estimated Total Size (MB): 120.08
…
